Wav2Vec2ForSequenceClassification(
  (wav2vec2): Wav2Vec2Model(
    (feature_extractor): Wav2Vec2FeatureEncoder(
      (conv_layers): ModuleList(
        (0): Wav2Vec2LayerNormConvLayer(
          (conv): Conv1d(1, 512, kernel_size=(10,), stride=(5,))
          (layer_norm): LayerNorm((512,), eps=1e-05, elementwise_affine=True)
          (activation): GELUActivation()
        )
        (1): Wav2Vec2LayerNormConvLayer(
          (conv): Conv1d(512, 512, kernel_size=(3,), stride=(2,))
          (layer_norm): LayerNorm((512,), eps=1e-05, elementwise_affine=True)
          (activation): GELUActivation()
        )
        (2): Wav2Vec2LayerNormConvLayer(
          (conv): Conv1d(512, 512, kernel_size=(3,), stride=(2,))
          (layer_norm): LayerNorm((512,), eps=1e-05, elementwise_affine=True)
          (activation): GELUActivation()
        )
        (3): Wav2Vec2LayerNormConvLayer(
          (conv): Conv1d(512, 512, kernel_size=(3,), stride=(2,))
          (layer_norm): LayerNorm((512,), eps=1e-05, elementwise_affine=True)
          (activation): GELUActivation()
        )
        (4): Wav2Vec2LayerNormConvLayer(
          (conv): Conv1d(512, 512, kernel_size=(3,), stride=(2,))
          (layer_norm): LayerNorm((512,), eps=1e-05, elementwise_affine=True)
          (activation): GELUActivation()
        )
        (5): Wav2Vec2LayerNormConvLayer(
          (conv): Conv1d(512, 512, kernel_size=(2,), stride=(2,))
          (layer_norm): LayerNorm((512,), eps=1e-05, elementwise_affine=True)
          (activation): GELUActivation()
        )
        (6): Wav2Vec2LayerNormConvLayer(
          (conv): Conv1d(512, 512, kernel_size=(2,), stride=(2,))
          (layer_norm): LayerNorm((512,), eps=1e-05, elementwise_affine=True)
          (activation): GELUActivation()
        )
      )
    )
    (feature_projection): Wav2Vec2FeatureProjection(
      (layer_norm): LayerNorm((512,), eps=1e-05, elementwise_affine=True)
      (projection): Linear(in_features=512, out_features=1024, bias=True)
      (dropout): Dropout(p=0.05, inplace=False)
    )
    (encoder): Wav2Vec2EncoderStableLayerNorm(
      (pos_conv_embed): Wav2Vec2PositionalConvEmbedding(
        (conv): Conv1d(1024, 1024, kernel_size=(128,), stride=(1,), padding=(64,), groups=16)
        (padding): Wav2Vec2SamePadLayer()
        (activation): GELUActivation()
      )
      (layer_norm): LayerNorm((1024,), eps=1e-05, elementwise_affine=True)
      (dropout): Dropout(p=0.05, inplace=False)
      (layers): ModuleList(
        (0): Wav2Vec2EncoderLayerStableLayerNorm(
          (attention): Wav2Vec2Attention(
            (k_proj): Linear(in_features=1024, out_features=1024, bias=True)
            (v_proj): Linear(in_features=1024, out_features=1024, bias=True)
            (q_proj): Linear(in_features=1024, out_features=1024, bias=True)
            (out_proj): Linear(in_features=1024, out_features=1024, bias=True)
          )
          (dropout): Dropout(p=0.05, inplace=False)
          (layer_norm): LayerNorm((1024,), eps=1e-05, elementwise_affine=True)
          (feed_forward): Wav2Vec2FeedForward(
            (intermediate_dropout): Dropout(p=0.05, inplace=False)
            (intermediate_dense): Linear(in_features=1024, out_features=4096, bias=True)
            (intermediate_act_fn): GELUActivation()
            (output_dense): Linear(in_features=4096, out_features=1024, bias=True)
            (output_dropout): Dropout(p=0.05, inplace=False)
          )
          (final_layer_norm): LayerNorm((1024,), eps=1e-05, elementwise_affine=True)
          (adapterblock): AdapterBlock(
            (layer_norm1): LayerNorm((1024,), eps=1e-05, elementwise_affine=True)
            (conv1): Conv1d(1024, 512, kernel_size=(3,), stride=(1,), padding=same, groups=512, bias=False)
            (relu1): ReLU(inplace=True)
            (conv2): Conv1d(512, 512, kernel_size=(5,), stride=(1,), padding=same, groups=512, bias=False)
            (conv3): Conv1d(512, 1024, kernel_size=(3,), stride=(1,), padding=same, groups=512, bias=False)
            (se3): SELayer(
              (avg_pool): AdaptiveAvgPool1d(output_size=1)
              (fc): Sequential(
                (0): Linear(in_features=1024, out_features=64, bias=False)
                (1): ReLU(inplace=True)
                (2): Linear(in_features=64, out_features=1024, bias=False)
                (3): Sigmoid()
              )
            )
          )
        )
        (1): Wav2Vec2EncoderLayerStableLayerNorm(
          (attention): Wav2Vec2Attention(
            (k_proj): Linear(in_features=1024, out_features=1024, bias=True)
            (v_proj): Linear(in_features=1024, out_features=1024, bias=True)
            (q_proj): Linear(in_features=1024, out_features=1024, bias=True)
            (out_proj): Linear(in_features=1024, out_features=1024, bias=True)
          )
          (dropout): Dropout(p=0.05, inplace=False)
          (layer_norm): LayerNorm((1024,), eps=1e-05, elementwise_affine=True)
          (feed_forward): Wav2Vec2FeedForward(
            (intermediate_dropout): Dropout(p=0.05, inplace=False)
            (intermediate_dense): Linear(in_features=1024, out_features=4096, bias=True)
            (intermediate_act_fn): GELUActivation()
            (output_dense): Linear(in_features=4096, out_features=1024, bias=True)
            (output_dropout): Dropout(p=0.05, inplace=False)
          )
          (final_layer_norm): LayerNorm((1024,), eps=1e-05, elementwise_affine=True)
          (adapterblock): AdapterBlock(
            (layer_norm1): LayerNorm((1024,), eps=1e-05, elementwise_affine=True)
            (conv1): Conv1d(1024, 512, kernel_size=(3,), stride=(1,), padding=same, groups=512, bias=False)
            (relu1): ReLU(inplace=True)
            (conv2): Conv1d(512, 512, kernel_size=(5,), stride=(1,), padding=same, groups=512, bias=False)
            (conv3): Conv1d(512, 1024, kernel_size=(3,), stride=(1,), padding=same, groups=512, bias=False)
            (se3): SELayer(
              (avg_pool): AdaptiveAvgPool1d(output_size=1)
              (fc): Sequential(
                (0): Linear(in_features=1024, out_features=64, bias=False)
                (1): ReLU(inplace=True)
                (2): Linear(in_features=64, out_features=1024, bias=False)
                (3): Sigmoid()
              )
            )
          )
        )
        (2): Wav2Vec2EncoderLayerStableLayerNorm(
          (attention): Wav2Vec2Attention(
            (k_proj): Linear(in_features=1024, out_features=1024, bias=True)
            (v_proj): Linear(in_features=1024, out_features=1024, bias=True)
            (q_proj): Linear(in_features=1024, out_features=1024, bias=True)
            (out_proj): Linear(in_features=1024, out_features=1024, bias=True)
          )
          (dropout): Dropout(p=0.05, inplace=False)
          (layer_norm): LayerNorm((1024,), eps=1e-05, elementwise_affine=True)
          (feed_forward): Wav2Vec2FeedForward(
            (intermediate_dropout): Dropout(p=0.05, inplace=False)
            (intermediate_dense): Linear(in_features=1024, out_features=4096, bias=True)
            (intermediate_act_fn): GELUActivation()
            (output_dense): Linear(in_features=4096, out_features=1024, bias=True)
            (output_dropout): Dropout(p=0.05, inplace=False)
          )
          (final_layer_norm): LayerNorm((1024,), eps=1e-05, elementwise_affine=True)
          (adapterblock): AdapterBlock(
            (layer_norm1): LayerNorm((1024,), eps=1e-05, elementwise_affine=True)
            (conv1): Conv1d(1024, 512, kernel_size=(3,), stride=(1,), padding=same, groups=512, bias=False)
            (relu1): ReLU(inplace=True)
            (conv2): Conv1d(512, 512, kernel_size=(5,), stride=(1,), padding=same, groups=512, bias=False)
            (conv3): Conv1d(512, 1024, kernel_size=(3,), stride=(1,), padding=same, groups=512, bias=False)
            (se3): SELayer(
              (avg_pool): AdaptiveAvgPool1d(output_size=1)
              (fc): Sequential(
                (0): Linear(in_features=1024, out_features=64, bias=False)
                (1): ReLU(inplace=True)
                (2): Linear(in_features=64, out_features=1024, bias=False)
                (3): Sigmoid()
              )
            )
          )
        )
        (3): Wav2Vec2EncoderLayerStableLayerNorm(
          (attention): Wav2Vec2Attention(
            (k_proj): Linear(in_features=1024, out_features=1024, bias=True)
            (v_proj): Linear(in_features=1024, out_features=1024, bias=True)
            (q_proj): Linear(in_features=1024, out_features=1024, bias=True)
            (out_proj): Linear(in_features=1024, out_features=1024, bias=True)
          )
          (dropout): Dropout(p=0.05, inplace=False)
          (layer_norm): LayerNorm((1024,), eps=1e-05, elementwise_affine=True)
          (feed_forward): Wav2Vec2FeedForward(
            (intermediate_dropout): Dropout(p=0.05, inplace=False)
            (intermediate_dense): Linear(in_features=1024, out_features=4096, bias=True)
            (intermediate_act_fn): GELUActivation()
            (output_dense): Linear(in_features=4096, out_features=1024, bias=True)
            (output_dropout): Dropout(p=0.05, inplace=False)
          )
          (final_layer_norm): LayerNorm((1024,), eps=1e-05, elementwise_affine=True)
          (adapterblock): AdapterBlock(
            (layer_norm1): LayerNorm((1024,), eps=1e-05, elementwise_affine=True)
            (conv1): Conv1d(1024, 512, kernel_size=(3,), stride=(1,), padding=same, groups=512, bias=False)
            (relu1): ReLU(inplace=True)
            (conv2): Conv1d(512, 512, kernel_size=(5,), stride=(1,), padding=same, groups=512, bias=False)
            (conv3): Conv1d(512, 1024, kernel_size=(3,), stride=(1,), padding=same, groups=512, bias=False)
            (se3): SELayer(
              (avg_pool): AdaptiveAvgPool1d(output_size=1)
              (fc): Sequential(
                (0): Linear(in_features=1024, out_features=64, bias=False)
                (1): ReLU(inplace=True)
                (2): Linear(in_features=64, out_features=1024, bias=False)
                (3): Sigmoid()
              )
            )
          )
        )
        (4): Wav2Vec2EncoderLayerStableLayerNorm(
          (attention): Wav2Vec2Attention(
            (k_proj): Linear(in_features=1024, out_features=1024, bias=True)
            (v_proj): Linear(in_features=1024, out_features=1024, bias=True)
            (q_proj): Linear(in_features=1024, out_features=1024, bias=True)
            (out_proj): Linear(in_features=1024, out_features=1024, bias=True)
          )
          (dropout): Dropout(p=0.05, inplace=False)
          (layer_norm): LayerNorm((1024,), eps=1e-05, elementwise_affine=True)
          (feed_forward): Wav2Vec2FeedForward(
            (intermediate_dropout): Dropout(p=0.05, inplace=False)
            (intermediate_dense): Linear(in_features=1024, out_features=4096, bias=True)
            (intermediate_act_fn): GELUActivation()
            (output_dense): Linear(in_features=4096, out_features=1024, bias=True)
            (output_dropout): Dropout(p=0.05, inplace=False)
          )
          (final_layer_norm): LayerNorm((1024,), eps=1e-05, elementwise_affine=True)
          (adapterblock): AdapterBlock(
            (layer_norm1): LayerNorm((1024,), eps=1e-05, elementwise_affine=True)
            (conv1): Conv1d(1024, 512, kernel_size=(3,), stride=(1,), padding=same, groups=512, bias=False)
            (relu1): ReLU(inplace=True)
            (conv2): Conv1d(512, 512, kernel_size=(5,), stride=(1,), padding=same, groups=512, bias=False)
            (conv3): Conv1d(512, 1024, kernel_size=(3,), stride=(1,), padding=same, groups=512, bias=False)
            (se3): SELayer(
              (avg_pool): AdaptiveAvgPool1d(output_size=1)
              (fc): Sequential(
                (0): Linear(in_features=1024, out_features=64, bias=False)
                (1): ReLU(inplace=True)
                (2): Linear(in_features=64, out_features=1024, bias=False)
                (3): Sigmoid()
              )
            )
          )
        )
        (5): Wav2Vec2EncoderLayerStableLayerNorm(
          (attention): Wav2Vec2Attention(
            (k_proj): Linear(in_features=1024, out_features=1024, bias=True)
            (v_proj): Linear(in_features=1024, out_features=1024, bias=True)
            (q_proj): Linear(in_features=1024, out_features=1024, bias=True)
            (out_proj): Linear(in_features=1024, out_features=1024, bias=True)
          )
          (dropout): Dropout(p=0.05, inplace=False)
          (layer_norm): LayerNorm((1024,), eps=1e-05, elementwise_affine=True)
          (feed_forward): Wav2Vec2FeedForward(
            (intermediate_dropout): Dropout(p=0.05, inplace=False)
            (intermediate_dense): Linear(in_features=1024, out_features=4096, bias=True)
            (intermediate_act_fn): GELUActivation()
            (output_dense): Linear(in_features=4096, out_features=1024, bias=True)
            (output_dropout): Dropout(p=0.05, inplace=False)
          )
          (final_layer_norm): LayerNorm((1024,), eps=1e-05, elementwise_affine=True)
          (adapterblock): AdapterBlock(
            (layer_norm1): LayerNorm((1024,), eps=1e-05, elementwise_affine=True)
            (conv1): Conv1d(1024, 512, kernel_size=(3,), stride=(1,), padding=same, groups=512, bias=False)
            (relu1): ReLU(inplace=True)
            (conv2): Conv1d(512, 512, kernel_size=(5,), stride=(1,), padding=same, groups=512, bias=False)
            (conv3): Conv1d(512, 1024, kernel_size=(3,), stride=(1,), padding=same, groups=512, bias=False)
            (se3): SELayer(
              (avg_pool): AdaptiveAvgPool1d(output_size=1)
              (fc): Sequential(
                (0): Linear(in_features=1024, out_features=64, bias=False)
                (1): ReLU(inplace=True)
                (2): Linear(in_features=64, out_features=1024, bias=False)
                (3): Sigmoid()
              )
            )
          )
        )
        (6): Wav2Vec2EncoderLayerStableLayerNorm(
          (attention): Wav2Vec2Attention(
            (k_proj): Linear(in_features=1024, out_features=1024, bias=True)
            (v_proj): Linear(in_features=1024, out_features=1024, bias=True)
            (q_proj): Linear(in_features=1024, out_features=1024, bias=True)
            (out_proj): Linear(in_features=1024, out_features=1024, bias=True)
          )
          (dropout): Dropout(p=0.05, inplace=False)
          (layer_norm): LayerNorm((1024,), eps=1e-05, elementwise_affine=True)
          (feed_forward): Wav2Vec2FeedForward(
            (intermediate_dropout): Dropout(p=0.05, inplace=False)
            (intermediate_dense): Linear(in_features=1024, out_features=4096, bias=True)
            (intermediate_act_fn): GELUActivation()
            (output_dense): Linear(in_features=4096, out_features=1024, bias=True)
            (output_dropout): Dropout(p=0.05, inplace=False)
          )
          (final_layer_norm): LayerNorm((1024,), eps=1e-05, elementwise_affine=True)
          (adapterblock): AdapterBlock(
            (layer_norm1): LayerNorm((1024,), eps=1e-05, elementwise_affine=True)
            (conv1): Conv1d(1024, 512, kernel_size=(3,), stride=(1,), padding=same, groups=512, bias=False)
            (relu1): ReLU(inplace=True)
            (conv2): Conv1d(512, 512, kernel_size=(5,), stride=(1,), padding=same, groups=512, bias=False)
            (conv3): Conv1d(512, 1024, kernel_size=(3,), stride=(1,), padding=same, groups=512, bias=False)
            (se3): SELayer(
              (avg_pool): AdaptiveAvgPool1d(output_size=1)
              (fc): Sequential(
                (0): Linear(in_features=1024, out_features=64, bias=False)
                (1): ReLU(inplace=True)
                (2): Linear(in_features=64, out_features=1024, bias=False)
                (3): Sigmoid()
              )
            )
          )
        )
        (7): Wav2Vec2EncoderLayerStableLayerNorm(
          (attention): Wav2Vec2Attention(
            (k_proj): Linear(in_features=1024, out_features=1024, bias=True)
            (v_proj): Linear(in_features=1024, out_features=1024, bias=True)
            (q_proj): Linear(in_features=1024, out_features=1024, bias=True)
            (out_proj): Linear(in_features=1024, out_features=1024, bias=True)
          )
          (dropout): Dropout(p=0.05, inplace=False)
          (layer_norm): LayerNorm((1024,), eps=1e-05, elementwise_affine=True)
          (feed_forward): Wav2Vec2FeedForward(
            (intermediate_dropout): Dropout(p=0.05, inplace=False)
            (intermediate_dense): Linear(in_features=1024, out_features=4096, bias=True)
            (intermediate_act_fn): GELUActivation()
            (output_dense): Linear(in_features=4096, out_features=1024, bias=True)
            (output_dropout): Dropout(p=0.05, inplace=False)
          )
          (final_layer_norm): LayerNorm((1024,), eps=1e-05, elementwise_affine=True)
          (adapterblock): AdapterBlock(
            (layer_norm1): LayerNorm((1024,), eps=1e-05, elementwise_affine=True)
            (conv1): Conv1d(1024, 512, kernel_size=(3,), stride=(1,), padding=same, groups=512, bias=False)
            (relu1): ReLU(inplace=True)
            (conv2): Conv1d(512, 512, kernel_size=(5,), stride=(1,), padding=same, groups=512, bias=False)
            (conv3): Conv1d(512, 1024, kernel_size=(3,), stride=(1,), padding=same, groups=512, bias=False)
            (se3): SELayer(
              (avg_pool): AdaptiveAvgPool1d(output_size=1)
              (fc): Sequential(
                (0): Linear(in_features=1024, out_features=64, bias=False)
                (1): ReLU(inplace=True)
                (2): Linear(in_features=64, out_features=1024, bias=False)
                (3): Sigmoid()
              )
            )
          )
        )
        (8): Wav2Vec2EncoderLayerStableLayerNorm(
          (attention): Wav2Vec2Attention(
            (k_proj): Linear(in_features=1024, out_features=1024, bias=True)
            (v_proj): Linear(in_features=1024, out_features=1024, bias=True)
            (q_proj): Linear(in_features=1024, out_features=1024, bias=True)
            (out_proj): Linear(in_features=1024, out_features=1024, bias=True)
          )
          (dropout): Dropout(p=0.05, inplace=False)
          (layer_norm): LayerNorm((1024,), eps=1e-05, elementwise_affine=True)
          (feed_forward): Wav2Vec2FeedForward(
            (intermediate_dropout): Dropout(p=0.05, inplace=False)
            (intermediate_dense): Linear(in_features=1024, out_features=4096, bias=True)
            (intermediate_act_fn): GELUActivation()
            (output_dense): Linear(in_features=4096, out_features=1024, bias=True)
            (output_dropout): Dropout(p=0.05, inplace=False)
          )
          (final_layer_norm): LayerNorm((1024,), eps=1e-05, elementwise_affine=True)
          (adapterblock): AdapterBlock(
            (layer_norm1): LayerNorm((1024,), eps=1e-05, elementwise_affine=True)
            (conv1): Conv1d(1024, 512, kernel_size=(3,), stride=(1,), padding=same, groups=512, bias=False)
            (relu1): ReLU(inplace=True)
            (conv2): Conv1d(512, 512, kernel_size=(5,), stride=(1,), padding=same, groups=512, bias=False)
            (conv3): Conv1d(512, 1024, kernel_size=(3,), stride=(1,), padding=same, groups=512, bias=False)
            (se3): SELayer(
              (avg_pool): AdaptiveAvgPool1d(output_size=1)
              (fc): Sequential(
                (0): Linear(in_features=1024, out_features=64, bias=False)
                (1): ReLU(inplace=True)
                (2): Linear(in_features=64, out_features=1024, bias=False)
                (3): Sigmoid()
              )
            )
          )
        )
        (9): Wav2Vec2EncoderLayerStableLayerNorm(
          (attention): Wav2Vec2Attention(
            (k_proj): Linear(in_features=1024, out_features=1024, bias=True)
            (v_proj): Linear(in_features=1024, out_features=1024, bias=True)
            (q_proj): Linear(in_features=1024, out_features=1024, bias=True)
            (out_proj): Linear(in_features=1024, out_features=1024, bias=True)
          )
          (dropout): Dropout(p=0.05, inplace=False)
          (layer_norm): LayerNorm((1024,), eps=1e-05, elementwise_affine=True)
          (feed_forward): Wav2Vec2FeedForward(
            (intermediate_dropout): Dropout(p=0.05, inplace=False)
            (intermediate_dense): Linear(in_features=1024, out_features=4096, bias=True)
            (intermediate_act_fn): GELUActivation()
            (output_dense): Linear(in_features=4096, out_features=1024, bias=True)
            (output_dropout): Dropout(p=0.05, inplace=False)
          )
          (final_layer_norm): LayerNorm((1024,), eps=1e-05, elementwise_affine=True)
          (adapterblock): AdapterBlock(
            (layer_norm1): LayerNorm((1024,), eps=1e-05, elementwise_affine=True)
            (conv1): Conv1d(1024, 512, kernel_size=(3,), stride=(1,), padding=same, groups=512, bias=False)
            (relu1): ReLU(inplace=True)
            (conv2): Conv1d(512, 512, kernel_size=(5,), stride=(1,), padding=same, groups=512, bias=False)
            (conv3): Conv1d(512, 1024, kernel_size=(3,), stride=(1,), padding=same, groups=512, bias=False)
            (se3): SELayer(
              (avg_pool): AdaptiveAvgPool1d(output_size=1)
              (fc): Sequential(
                (0): Linear(in_features=1024, out_features=64, bias=False)
                (1): ReLU(inplace=True)
                (2): Linear(in_features=64, out_features=1024, bias=False)
                (3): Sigmoid()
              )
            )
          )
        )
        (10): Wav2Vec2EncoderLayerStableLayerNorm(
          (attention): Wav2Vec2Attention(
            (k_proj): Linear(in_features=1024, out_features=1024, bias=True)
            (v_proj): Linear(in_features=1024, out_features=1024, bias=True)
            (q_proj): Linear(in_features=1024, out_features=1024, bias=True)
            (out_proj): Linear(in_features=1024, out_features=1024, bias=True)
          )
          (dropout): Dropout(p=0.05, inplace=False)
          (layer_norm): LayerNorm((1024,), eps=1e-05, elementwise_affine=True)
          (feed_forward): Wav2Vec2FeedForward(
            (intermediate_dropout): Dropout(p=0.05, inplace=False)
            (intermediate_dense): Linear(in_features=1024, out_features=4096, bias=True)
            (intermediate_act_fn): GELUActivation()
            (output_dense): Linear(in_features=4096, out_features=1024, bias=True)
            (output_dropout): Dropout(p=0.05, inplace=False)
          )
          (final_layer_norm): LayerNorm((1024,), eps=1e-05, elementwise_affine=True)
          (adapterblock): AdapterBlock(
            (layer_norm1): LayerNorm((1024,), eps=1e-05, elementwise_affine=True)
            (conv1): Conv1d(1024, 512, kernel_size=(3,), stride=(1,), padding=same, groups=512, bias=False)
            (relu1): ReLU(inplace=True)
            (conv2): Conv1d(512, 512, kernel_size=(5,), stride=(1,), padding=same, groups=512, bias=False)
            (conv3): Conv1d(512, 1024, kernel_size=(3,), stride=(1,), padding=same, groups=512, bias=False)
            (se3): SELayer(
              (avg_pool): AdaptiveAvgPool1d(output_size=1)
              (fc): Sequential(
                (0): Linear(in_features=1024, out_features=64, bias=False)
                (1): ReLU(inplace=True)
                (2): Linear(in_features=64, out_features=1024, bias=False)
                (3): Sigmoid()
              )
            )
          )
        )
        (11): Wav2Vec2EncoderLayerStableLayerNorm(
          (attention): Wav2Vec2Attention(
            (k_proj): Linear(in_features=1024, out_features=1024, bias=True)
            (v_proj): Linear(in_features=1024, out_features=1024, bias=True)
            (q_proj): Linear(in_features=1024, out_features=1024, bias=True)
            (out_proj): Linear(in_features=1024, out_features=1024, bias=True)
          )
          (dropout): Dropout(p=0.05, inplace=False)
          (layer_norm): LayerNorm((1024,), eps=1e-05, elementwise_affine=True)
          (feed_forward): Wav2Vec2FeedForward(
            (intermediate_dropout): Dropout(p=0.05, inplace=False)
            (intermediate_dense): Linear(in_features=1024, out_features=4096, bias=True)
            (intermediate_act_fn): GELUActivation()
            (output_dense): Linear(in_features=4096, out_features=1024, bias=True)
            (output_dropout): Dropout(p=0.05, inplace=False)
          )
          (final_layer_norm): LayerNorm((1024,), eps=1e-05, elementwise_affine=True)
          (adapterblock): AdapterBlock(
            (layer_norm1): LayerNorm((1024,), eps=1e-05, elementwise_affine=True)
            (conv1): Conv1d(1024, 512, kernel_size=(3,), stride=(1,), padding=same, groups=512, bias=False)
            (relu1): ReLU(inplace=True)
            (conv2): Conv1d(512, 512, kernel_size=(5,), stride=(1,), padding=same, groups=512, bias=False)
            (conv3): Conv1d(512, 1024, kernel_size=(3,), stride=(1,), padding=same, groups=512, bias=False)
            (se3): SELayer(
              (avg_pool): AdaptiveAvgPool1d(output_size=1)
              (fc): Sequential(
                (0): Linear(in_features=1024, out_features=64, bias=False)
                (1): ReLU(inplace=True)
                (2): Linear(in_features=64, out_features=1024, bias=False)
                (3): Sigmoid()
              )
            )
          )
        )
        (12): Wav2Vec2EncoderLayerStableLayerNorm(
          (attention): Wav2Vec2Attention(
            (k_proj): Linear(in_features=1024, out_features=1024, bias=True)
            (v_proj): Linear(in_features=1024, out_features=1024, bias=True)
            (q_proj): Linear(in_features=1024, out_features=1024, bias=True)
            (out_proj): Linear(in_features=1024, out_features=1024, bias=True)
          )
          (dropout): Dropout(p=0.05, inplace=False)
          (layer_norm): LayerNorm((1024,), eps=1e-05, elementwise_affine=True)
          (feed_forward): Wav2Vec2FeedForward(
            (intermediate_dropout): Dropout(p=0.05, inplace=False)
            (intermediate_dense): Linear(in_features=1024, out_features=4096, bias=True)
            (intermediate_act_fn): GELUActivation()
            (output_dense): Linear(in_features=4096, out_features=1024, bias=True)
            (output_dropout): Dropout(p=0.05, inplace=False)
          )
          (final_layer_norm): LayerNorm((1024,), eps=1e-05, elementwise_affine=True)
          (adapterblock): AdapterBlock(
            (layer_norm1): LayerNorm((1024,), eps=1e-05, elementwise_affine=True)
            (conv1): Conv1d(1024, 512, kernel_size=(3,), stride=(1,), padding=same, groups=512, bias=False)
            (relu1): ReLU(inplace=True)
            (conv2): Conv1d(512, 512, kernel_size=(5,), stride=(1,), padding=same, groups=512, bias=False)
            (conv3): Conv1d(512, 1024, kernel_size=(3,), stride=(1,), padding=same, groups=512, bias=False)
            (se3): SELayer(
              (avg_pool): AdaptiveAvgPool1d(output_size=1)
              (fc): Sequential(
                (0): Linear(in_features=1024, out_features=64, bias=False)
                (1): ReLU(inplace=True)
                (2): Linear(in_features=64, out_features=1024, bias=False)
                (3): Sigmoid()
              )
            )
          )
        )
        (13): Wav2Vec2EncoderLayerStableLayerNorm(
          (attention): Wav2Vec2Attention(
            (k_proj): Linear(in_features=1024, out_features=1024, bias=True)
            (v_proj): Linear(in_features=1024, out_features=1024, bias=True)
            (q_proj): Linear(in_features=1024, out_features=1024, bias=True)
            (out_proj): Linear(in_features=1024, out_features=1024, bias=True)
          )
          (dropout): Dropout(p=0.05, inplace=False)
          (layer_norm): LayerNorm((1024,), eps=1e-05, elementwise_affine=True)
          (feed_forward): Wav2Vec2FeedForward(
            (intermediate_dropout): Dropout(p=0.05, inplace=False)
            (intermediate_dense): Linear(in_features=1024, out_features=4096, bias=True)
            (intermediate_act_fn): GELUActivation()
            (output_dense): Linear(in_features=4096, out_features=1024, bias=True)
            (output_dropout): Dropout(p=0.05, inplace=False)
          )
          (final_layer_norm): LayerNorm((1024,), eps=1e-05, elementwise_affine=True)
          (adapterblock): AdapterBlock(
            (layer_norm1): LayerNorm((1024,), eps=1e-05, elementwise_affine=True)
            (conv1): Conv1d(1024, 512, kernel_size=(3,), stride=(1,), padding=same, groups=512, bias=False)
            (relu1): ReLU(inplace=True)
            (conv2): Conv1d(512, 512, kernel_size=(5,), stride=(1,), padding=same, groups=512, bias=False)
            (conv3): Conv1d(512, 1024, kernel_size=(3,), stride=(1,), padding=same, groups=512, bias=False)
            (se3): SELayer(
              (avg_pool): AdaptiveAvgPool1d(output_size=1)
              (fc): Sequential(
                (0): Linear(in_features=1024, out_features=64, bias=False)
                (1): ReLU(inplace=True)
                (2): Linear(in_features=64, out_features=1024, bias=False)
                (3): Sigmoid()
              )
            )
          )
        )
        (14): Wav2Vec2EncoderLayerStableLayerNorm(
          (attention): Wav2Vec2Attention(
            (k_proj): Linear(in_features=1024, out_features=1024, bias=True)
            (v_proj): Linear(in_features=1024, out_features=1024, bias=True)
            (q_proj): Linear(in_features=1024, out_features=1024, bias=True)
            (out_proj): Linear(in_features=1024, out_features=1024, bias=True)
          )
          (dropout): Dropout(p=0.05, inplace=False)
          (layer_norm): LayerNorm((1024,), eps=1e-05, elementwise_affine=True)
          (feed_forward): Wav2Vec2FeedForward(
            (intermediate_dropout): Dropout(p=0.05, inplace=False)
            (intermediate_dense): Linear(in_features=1024, out_features=4096, bias=True)
            (intermediate_act_fn): GELUActivation()
            (output_dense): Linear(in_features=4096, out_features=1024, bias=True)
            (output_dropout): Dropout(p=0.05, inplace=False)
          )
          (final_layer_norm): LayerNorm((1024,), eps=1e-05, elementwise_affine=True)
          (adapterblock): AdapterBlock(
            (layer_norm1): LayerNorm((1024,), eps=1e-05, elementwise_affine=True)
            (conv1): Conv1d(1024, 512, kernel_size=(3,), stride=(1,), padding=same, groups=512, bias=False)
            (relu1): ReLU(inplace=True)
            (conv2): Conv1d(512, 512, kernel_size=(5,), stride=(1,), padding=same, groups=512, bias=False)
            (conv3): Conv1d(512, 1024, kernel_size=(3,), stride=(1,), padding=same, groups=512, bias=False)
            (se3): SELayer(
              (avg_pool): AdaptiveAvgPool1d(output_size=1)
              (fc): Sequential(
                (0): Linear(in_features=1024, out_features=64, bias=False)
                (1): ReLU(inplace=True)
                (2): Linear(in_features=64, out_features=1024, bias=False)
                (3): Sigmoid()
              )
            )
          )
        )
        (15): Wav2Vec2EncoderLayerStableLayerNorm(
          (attention): Wav2Vec2Attention(
            (k_proj): Linear(in_features=1024, out_features=1024, bias=True)
            (v_proj): Linear(in_features=1024, out_features=1024, bias=True)
            (q_proj): Linear(in_features=1024, out_features=1024, bias=True)
            (out_proj): Linear(in_features=1024, out_features=1024, bias=True)
          )
          (dropout): Dropout(p=0.05, inplace=False)
          (layer_norm): LayerNorm((1024,), eps=1e-05, elementwise_affine=True)
          (feed_forward): Wav2Vec2FeedForward(
            (intermediate_dropout): Dropout(p=0.05, inplace=False)
            (intermediate_dense): Linear(in_features=1024, out_features=4096, bias=True)
            (intermediate_act_fn): GELUActivation()
            (output_dense): Linear(in_features=4096, out_features=1024, bias=True)
            (output_dropout): Dropout(p=0.05, inplace=False)
          )
          (final_layer_norm): LayerNorm((1024,), eps=1e-05, elementwise_affine=True)
          (adapterblock): AdapterBlock(
            (layer_norm1): LayerNorm((1024,), eps=1e-05, elementwise_affine=True)
            (conv1): Conv1d(1024, 512, kernel_size=(3,), stride=(1,), padding=same, groups=512, bias=False)
            (relu1): ReLU(inplace=True)
            (conv2): Conv1d(512, 512, kernel_size=(5,), stride=(1,), padding=same, groups=512, bias=False)
            (conv3): Conv1d(512, 1024, kernel_size=(3,), stride=(1,), padding=same, groups=512, bias=False)
            (se3): SELayer(
              (avg_pool): AdaptiveAvgPool1d(output_size=1)
              (fc): Sequential(
                (0): Linear(in_features=1024, out_features=64, bias=False)
                (1): ReLU(inplace=True)
                (2): Linear(in_features=64, out_features=1024, bias=False)
                (3): Sigmoid()
              )
            )
          )
        )
        (16): Wav2Vec2EncoderLayerStableLayerNorm(
          (attention): Wav2Vec2Attention(
            (k_proj): Linear(in_features=1024, out_features=1024, bias=True)
            (v_proj): Linear(in_features=1024, out_features=1024, bias=True)
            (q_proj): Linear(in_features=1024, out_features=1024, bias=True)
            (out_proj): Linear(in_features=1024, out_features=1024, bias=True)
          )
          (dropout): Dropout(p=0.05, inplace=False)
          (layer_norm): LayerNorm((1024,), eps=1e-05, elementwise_affine=True)
          (feed_forward): Wav2Vec2FeedForward(
            (intermediate_dropout): Dropout(p=0.05, inplace=False)
            (intermediate_dense): Linear(in_features=1024, out_features=4096, bias=True)
            (intermediate_act_fn): GELUActivation()
            (output_dense): Linear(in_features=4096, out_features=1024, bias=True)
            (output_dropout): Dropout(p=0.05, inplace=False)
          )
          (final_layer_norm): LayerNorm((1024,), eps=1e-05, elementwise_affine=True)
          (adapterblock): AdapterBlock(
            (layer_norm1): LayerNorm((1024,), eps=1e-05, elementwise_affine=True)
            (conv1): Conv1d(1024, 512, kernel_size=(3,), stride=(1,), padding=same, groups=512, bias=False)
            (relu1): ReLU(inplace=True)
            (conv2): Conv1d(512, 512, kernel_size=(5,), stride=(1,), padding=same, groups=512, bias=False)
            (conv3): Conv1d(512, 1024, kernel_size=(3,), stride=(1,), padding=same, groups=512, bias=False)
            (se3): SELayer(
              (avg_pool): AdaptiveAvgPool1d(output_size=1)
              (fc): Sequential(
                (0): Linear(in_features=1024, out_features=64, bias=False)
                (1): ReLU(inplace=True)
                (2): Linear(in_features=64, out_features=1024, bias=False)
                (3): Sigmoid()
              )
            )
          )
        )
        (17): Wav2Vec2EncoderLayerStableLayerNorm(
          (attention): Wav2Vec2Attention(
            (k_proj): Linear(in_features=1024, out_features=1024, bias=True)
            (v_proj): Linear(in_features=1024, out_features=1024, bias=True)
            (q_proj): Linear(in_features=1024, out_features=1024, bias=True)
            (out_proj): Linear(in_features=1024, out_features=1024, bias=True)
          )
          (dropout): Dropout(p=0.05, inplace=False)
          (layer_norm): LayerNorm((1024,), eps=1e-05, elementwise_affine=True)
          (feed_forward): Wav2Vec2FeedForward(
            (intermediate_dropout): Dropout(p=0.05, inplace=False)
            (intermediate_dense): Linear(in_features=1024, out_features=4096, bias=True)
            (intermediate_act_fn): GELUActivation()
            (output_dense): Linear(in_features=4096, out_features=1024, bias=True)
            (output_dropout): Dropout(p=0.05, inplace=False)
          )
          (final_layer_norm): LayerNorm((1024,), eps=1e-05, elementwise_affine=True)
          (adapterblock): AdapterBlock(
            (layer_norm1): LayerNorm((1024,), eps=1e-05, elementwise_affine=True)
            (conv1): Conv1d(1024, 512, kernel_size=(3,), stride=(1,), padding=same, groups=512, bias=False)
            (relu1): ReLU(inplace=True)
            (conv2): Conv1d(512, 512, kernel_size=(5,), stride=(1,), padding=same, groups=512, bias=False)
            (conv3): Conv1d(512, 1024, kernel_size=(3,), stride=(1,), padding=same, groups=512, bias=False)
            (se3): SELayer(
              (avg_pool): AdaptiveAvgPool1d(output_size=1)
              (fc): Sequential(
                (0): Linear(in_features=1024, out_features=64, bias=False)
                (1): ReLU(inplace=True)
                (2): Linear(in_features=64, out_features=1024, bias=False)
                (3): Sigmoid()
              )
            )
          )
        )
        (18): Wav2Vec2EncoderLayerStableLayerNorm(
          (attention): Wav2Vec2Attention(
            (k_proj): Linear(in_features=1024, out_features=1024, bias=True)
            (v_proj): Linear(in_features=1024, out_features=1024, bias=True)
            (q_proj): Linear(in_features=1024, out_features=1024, bias=True)
            (out_proj): Linear(in_features=1024, out_features=1024, bias=True)
          )
          (dropout): Dropout(p=0.05, inplace=False)
          (layer_norm): LayerNorm((1024,), eps=1e-05, elementwise_affine=True)
          (feed_forward): Wav2Vec2FeedForward(
            (intermediate_dropout): Dropout(p=0.05, inplace=False)
            (intermediate_dense): Linear(in_features=1024, out_features=4096, bias=True)
            (intermediate_act_fn): GELUActivation()
            (output_dense): Linear(in_features=4096, out_features=1024, bias=True)
            (output_dropout): Dropout(p=0.05, inplace=False)
          )
          (final_layer_norm): LayerNorm((1024,), eps=1e-05, elementwise_affine=True)
          (adapterblock): AdapterBlock(
            (layer_norm1): LayerNorm((1024,), eps=1e-05, elementwise_affine=True)
            (conv1): Conv1d(1024, 512, kernel_size=(3,), stride=(1,), padding=same, groups=512, bias=False)
            (relu1): ReLU(inplace=True)
            (conv2): Conv1d(512, 512, kernel_size=(5,), stride=(1,), padding=same, groups=512, bias=False)
            (conv3): Conv1d(512, 1024, kernel_size=(3,), stride=(1,), padding=same, groups=512, bias=False)
            (se3): SELayer(
              (avg_pool): AdaptiveAvgPool1d(output_size=1)
              (fc): Sequential(
                (0): Linear(in_features=1024, out_features=64, bias=False)
                (1): ReLU(inplace=True)
                (2): Linear(in_features=64, out_features=1024, bias=False)
                (3): Sigmoid()
              )
            )
          )
        )
        (19): Wav2Vec2EncoderLayerStableLayerNorm(
          (attention): Wav2Vec2Attention(
            (k_proj): Linear(in_features=1024, out_features=1024, bias=True)
            (v_proj): Linear(in_features=1024, out_features=1024, bias=True)
            (q_proj): Linear(in_features=1024, out_features=1024, bias=True)
            (out_proj): Linear(in_features=1024, out_features=1024, bias=True)
          )
          (dropout): Dropout(p=0.05, inplace=False)
          (layer_norm): LayerNorm((1024,), eps=1e-05, elementwise_affine=True)
          (feed_forward): Wav2Vec2FeedForward(
            (intermediate_dropout): Dropout(p=0.05, inplace=False)
            (intermediate_dense): Linear(in_features=1024, out_features=4096, bias=True)
            (intermediate_act_fn): GELUActivation()
            (output_dense): Linear(in_features=4096, out_features=1024, bias=True)
            (output_dropout): Dropout(p=0.05, inplace=False)
          )
          (final_layer_norm): LayerNorm((1024,), eps=1e-05, elementwise_affine=True)
          (adapterblock): AdapterBlock(
            (layer_norm1): LayerNorm((1024,), eps=1e-05, elementwise_affine=True)
            (conv1): Conv1d(1024, 512, kernel_size=(3,), stride=(1,), padding=same, groups=512, bias=False)
            (relu1): ReLU(inplace=True)
            (conv2): Conv1d(512, 512, kernel_size=(5,), stride=(1,), padding=same, groups=512, bias=False)
            (conv3): Conv1d(512, 1024, kernel_size=(3,), stride=(1,), padding=same, groups=512, bias=False)
            (se3): SELayer(
              (avg_pool): AdaptiveAvgPool1d(output_size=1)
              (fc): Sequential(
                (0): Linear(in_features=1024, out_features=64, bias=False)
                (1): ReLU(inplace=True)
                (2): Linear(in_features=64, out_features=1024, bias=False)
                (3): Sigmoid()
              )
            )
          )
        )
        (20): Wav2Vec2EncoderLayerStableLayerNorm(
          (attention): Wav2Vec2Attention(
            (k_proj): Linear(in_features=1024, out_features=1024, bias=True)
            (v_proj): Linear(in_features=1024, out_features=1024, bias=True)
            (q_proj): Linear(in_features=1024, out_features=1024, bias=True)
            (out_proj): Linear(in_features=1024, out_features=1024, bias=True)
          )
          (dropout): Dropout(p=0.05, inplace=False)
          (layer_norm): LayerNorm((1024,), eps=1e-05, elementwise_affine=True)
          (feed_forward): Wav2Vec2FeedForward(
            (intermediate_dropout): Dropout(p=0.05, inplace=False)
            (intermediate_dense): Linear(in_features=1024, out_features=4096, bias=True)
            (intermediate_act_fn): GELUActivation()
            (output_dense): Linear(in_features=4096, out_features=1024, bias=True)
            (output_dropout): Dropout(p=0.05, inplace=False)
          )
          (final_layer_norm): LayerNorm((1024,), eps=1e-05, elementwise_affine=True)
          (adapterblock): AdapterBlock(
            (layer_norm1): LayerNorm((1024,), eps=1e-05, elementwise_affine=True)
            (conv1): Conv1d(1024, 512, kernel_size=(3,), stride=(1,), padding=same, groups=512, bias=False)
            (relu1): ReLU(inplace=True)
            (conv2): Conv1d(512, 512, kernel_size=(5,), stride=(1,), padding=same, groups=512, bias=False)
            (conv3): Conv1d(512, 1024, kernel_size=(3,), stride=(1,), padding=same, groups=512, bias=False)
            (se3): SELayer(
              (avg_pool): AdaptiveAvgPool1d(output_size=1)
              (fc): Sequential(
                (0): Linear(in_features=1024, out_features=64, bias=False)
                (1): ReLU(inplace=True)
                (2): Linear(in_features=64, out_features=1024, bias=False)
                (3): Sigmoid()
              )
            )
          )
        )
        (21): Wav2Vec2EncoderLayerStableLayerNorm(
          (attention): Wav2Vec2Attention(
            (k_proj): Linear(in_features=1024, out_features=1024, bias=True)
            (v_proj): Linear(in_features=1024, out_features=1024, bias=True)
            (q_proj): Linear(in_features=1024, out_features=1024, bias=True)
            (out_proj): Linear(in_features=1024, out_features=1024, bias=True)
          )
          (dropout): Dropout(p=0.05, inplace=False)
          (layer_norm): LayerNorm((1024,), eps=1e-05, elementwise_affine=True)
          (feed_forward): Wav2Vec2FeedForward(
            (intermediate_dropout): Dropout(p=0.05, inplace=False)
            (intermediate_dense): Linear(in_features=1024, out_features=4096, bias=True)
            (intermediate_act_fn): GELUActivation()
            (output_dense): Linear(in_features=4096, out_features=1024, bias=True)
            (output_dropout): Dropout(p=0.05, inplace=False)
          )
          (final_layer_norm): LayerNorm((1024,), eps=1e-05, elementwise_affine=True)
          (adapterblock): AdapterBlock(
            (layer_norm1): LayerNorm((1024,), eps=1e-05, elementwise_affine=True)
            (conv1): Conv1d(1024, 512, kernel_size=(3,), stride=(1,), padding=same, groups=512, bias=False)
            (relu1): ReLU(inplace=True)
            (conv2): Conv1d(512, 512, kernel_size=(5,), stride=(1,), padding=same, groups=512, bias=False)
            (conv3): Conv1d(512, 1024, kernel_size=(3,), stride=(1,), padding=same, groups=512, bias=False)
            (se3): SELayer(
              (avg_pool): AdaptiveAvgPool1d(output_size=1)
              (fc): Sequential(
                (0): Linear(in_features=1024, out_features=64, bias=False)
                (1): ReLU(inplace=True)
                (2): Linear(in_features=64, out_features=1024, bias=False)
                (3): Sigmoid()
              )
            )
          )
        )
        (22): Wav2Vec2EncoderLayerStableLayerNorm(
          (attention): Wav2Vec2Attention(
            (k_proj): Linear(in_features=1024, out_features=1024, bias=True)
            (v_proj): Linear(in_features=1024, out_features=1024, bias=True)
            (q_proj): Linear(in_features=1024, out_features=1024, bias=True)
            (out_proj): Linear(in_features=1024, out_features=1024, bias=True)
          )
          (dropout): Dropout(p=0.05, inplace=False)
          (layer_norm): LayerNorm((1024,), eps=1e-05, elementwise_affine=True)
          (feed_forward): Wav2Vec2FeedForward(
            (intermediate_dropout): Dropout(p=0.05, inplace=False)
            (intermediate_dense): Linear(in_features=1024, out_features=4096, bias=True)
            (intermediate_act_fn): GELUActivation()
            (output_dense): Linear(in_features=4096, out_features=1024, bias=True)
            (output_dropout): Dropout(p=0.05, inplace=False)
          )
          (final_layer_norm): LayerNorm((1024,), eps=1e-05, elementwise_affine=True)
          (adapterblock): AdapterBlock(
            (layer_norm1): LayerNorm((1024,), eps=1e-05, elementwise_affine=True)
            (conv1): Conv1d(1024, 512, kernel_size=(3,), stride=(1,), padding=same, groups=512, bias=False)
            (relu1): ReLU(inplace=True)
            (conv2): Conv1d(512, 512, kernel_size=(5,), stride=(1,), padding=same, groups=512, bias=False)
            (conv3): Conv1d(512, 1024, kernel_size=(3,), stride=(1,), padding=same, groups=512, bias=False)
            (se3): SELayer(
              (avg_pool): AdaptiveAvgPool1d(output_size=1)
              (fc): Sequential(
                (0): Linear(in_features=1024, out_features=64, bias=False)
                (1): ReLU(inplace=True)
                (2): Linear(in_features=64, out_features=1024, bias=False)
                (3): Sigmoid()
              )
            )
          )
        )
        (23): Wav2Vec2EncoderLayerStableLayerNorm(
          (attention): Wav2Vec2Attention(
            (k_proj): Linear(in_features=1024, out_features=1024, bias=True)
            (v_proj): Linear(in_features=1024, out_features=1024, bias=True)
            (q_proj): Linear(in_features=1024, out_features=1024, bias=True)
            (out_proj): Linear(in_features=1024, out_features=1024, bias=True)
          )
          (dropout): Dropout(p=0.05, inplace=False)
          (layer_norm): LayerNorm((1024,), eps=1e-05, elementwise_affine=True)
          (feed_forward): Wav2Vec2FeedForward(
            (intermediate_dropout): Dropout(p=0.05, inplace=False)
            (intermediate_dense): Linear(in_features=1024, out_features=4096, bias=True)
            (intermediate_act_fn): GELUActivation()
            (output_dense): Linear(in_features=4096, out_features=1024, bias=True)
            (output_dropout): Dropout(p=0.05, inplace=False)
          )
          (final_layer_norm): LayerNorm((1024,), eps=1e-05, elementwise_affine=True)
          (adapterblock): AdapterBlock(
            (layer_norm1): LayerNorm((1024,), eps=1e-05, elementwise_affine=True)
            (conv1): Conv1d(1024, 512, kernel_size=(3,), stride=(1,), padding=same, groups=512, bias=False)
            (relu1): ReLU(inplace=True)
            (conv2): Conv1d(512, 512, kernel_size=(5,), stride=(1,), padding=same, groups=512, bias=False)
            (conv3): Conv1d(512, 1024, kernel_size=(3,), stride=(1,), padding=same, groups=512, bias=False)
            (se3): SELayer(
              (avg_pool): AdaptiveAvgPool1d(output_size=1)
              (fc): Sequential(
                (0): Linear(in_features=1024, out_features=64, bias=False)
                (1): ReLU(inplace=True)
                (2): Linear(in_features=64, out_features=1024, bias=False)
                (3): Sigmoid()
              )
            )
          )
        )
      )
    )
  )
  (projector): Linear(in_features=1024, out_features=256, bias=True)
  (classifier): Linear(in_features=256, out_features=5, bias=True)
)

 #Train: 15000, #Valid: 1000, #Test: 1500 


------>>> Trainable params(before freeze): 319106181
------>>> Trainable params(after  freeze): 3667461
wav2vec2.encoder.layers.0.adapterblock.layer_norm1.weight True torch.Size([1024])
wav2vec2.encoder.layers.0.adapterblock.layer_norm1.bias True torch.Size([1024])
wav2vec2.encoder.layers.0.adapterblock.conv1.weight True torch.Size([512, 2, 3])
…
